mnistrecognizer/model_parameters.npz (npz, 891078 bytes, 8 tensors)

W1 f8 [128, 784]
0.001785053797387704 -0.019116181916820574 -0.020454138334144025 -0.010067392348919206 -0.013150365265621678 0.00863794213726073 -0.02127921332033455 0.023473069824951447
-0.028494237105236086 0.0078043761044053125 0.03819786032360641 -0.008021187887079161 -0.01211631660617923 -0.003773147815060273 -0.0017692995388536201 -0.015209689574806952
-0.02022784087180368 -0.029753295556550187 -0.03823318541533986 0.02470861754509717 -2.6166299899670666e-05 0.013487539947021709 -0.008984703284882153 -0.03467189626374392
0.002091074505787948 -0.015310674945293356 0.010658776734207417 0.024698102353621007 -0.017971326836766797 -0.021937560659146215 0.014663274794409077 0.006807819304432641
-0.04919813398655186 0.0040371288245340895 -0.013141717752433934 -0.007880339336150266 0.02795459304349275 -0.03340335258377328 -0.009064411267061609 0.002873296102735742
-0.0009737145162732711 -0.008403159241114528 0.01631975818183451 0.0037946061553948978 -0.022696265401273515 -0.011706966088454543 0.0016053972703660893 -0.0039555120819739125
0.0016543165974936213 0.019484856540753548 -0.011185655792585568 -0.0028999624732690813 0.0041505621033403935 -0.007183050288154032 0.028801413511756704 -0.011248687038100797
0.007894652318792226 -0.018617243099766815 0.007980098181615946 0.0038237916974349197 -0.012701843001330424 0.016889718100382593 0.045989128050127746 -0.04137236969744499
0.004530298875019368 0.03763264757665431 0.008434835973764888 0.02873925426522348 0.003143864237730883 -0.01817596925465852 -0.024403964904682374 -0.021022106732747313
0.005553977579864013 0.0056590472146922826 0.01927142864568123 -0.016647063182832288 -0.013711525524110575 0.019279213546830806 -0.00741230720216383 0.0032513533722730616
0.020338575330695254 -0.015597643780679566 -0.008483977453645299 -0.008011570235888449 -0.010940346892451023 0.05008251320132637 -0.0033190349207440776 0.0049560936738601395
0.019940716266569784 0.006484434081623587 -0.0006923832969259977 0.03797985394054781 0.005182433239066977 -0.00025828623304121755 -0.005058258498718569 -0.014473989373895685
0.0021753653844543887 -0.0075792197785915505 0.008833823348820926 -0.0009075287795272916 -0.05007165460223061 -0.0044376567143069555 0.00471997418864947 0.009806922283476087
-0.02006870326970943 0.012386132632937575 0.004417031839856972 0.027228914642765212 -0.02957212809145374 0.006721568295915986 0.0017749931187171152 0.00958306665167261
-0.007229891238289038 -0.010280077628631633 -0.0008316817484511753 0.002696165321977689 0.01567850038102268 -0.030805366030760128 -0.0074018822837430345 -0.009816792749699472
-0.013997904363673036 -0.057709283080183686 -0.056472195919889175 -0.03204120026173958 -0.07263816656139913 -0.08473812033697563 -0.11760382940634807 -0.06642422154348188
-0.0014924198696706483 0.0029253716738695656 0.0397551975591496 0.009229282144702767 -0.012788239025182294 -0.013255405697605164 -0.009640147710772273 -0.006336513013575255
-0.008762182062989763 -0.034366798708488105 0.01410569573779292 -0.014015454871160704 -0.021768243266556297 -0.011493022927239417 0.03535284599082076 0.0021514138889712174
0.0036478080428514635 0.0023276580099459367 0.03709506408702742 0.017479379128150032 -0.037026096324015746 -0.0014775915342623768 -0.0698952743033289 -0.14279803757667445
-0.15180418596202466 -0.08005183279526222 -0.08603075588633173 -0.14573111841760358 -0.041731500795166576 -0.019050083939665872 -0.005082597805151143 0.00919367221459502
-0.011259460848896122 -0.02007301342107988 -0.03496209598980674 0.009738057044622264 0.012490304912735 0.0015226216826401697 0.021059800161281218 -0.008696742000271467
0.0022477493411489934 0.018468818765615954 -0.008185492475614314 0.033742770253348306 0.053464073558065456 0.040842637024724224 0.06337118152281139 0.08925836490949131
0.06835678492494324 0.10545628573507886 0.10657802610710848 -0.015839194490376764 -0.11626856819440584 -0.06925173246675914 -0.056695889828851806 -0.003420325406006968
-0.009865378790153768 -0.01501722069124122 0.0009936036104683992 -0.018186012226353878 -0.03344690568339722 -0.013917711464669136 -0.048631261920132375 -0.015149878864463735
0.019988330390926397 0.016115176868202567 0.01999946363214517 0.00984578784585202 0.010030600755904286 -0.028052451238637914 0.004418494996047801 0.029974065341394265
0.06991270718543013 0.054314741917682145 0.131409937252856 0.175409955450569 0.1457717530753412 0.09645339702419532 0.04034140977251224 0.08066623709046877
0.11266375438921263 0.13034880906717483 0.14002798230519206 0.003143715269915467 -0.04497546012721249 -0.04357490355195091 -0.0668712406367776 -0.04057130222997116
-0.019848804408753046 -0.030026938385767858 -0.07119693319004726 -0.0479104388862163 0.011637873205645442 0.003977137840447892 -0.00680828868537205 -0.006389731662912114
0.0007619943574714758 -0.008435566189578525 -0.01678259587469112 0.015458252247852768 0.05908044288737718 0.05423704306104049 -0.03611596480988603 0.02771966591607773
0.13533632382418598 0.12114501044566951 0.1807364178932725 0.22608168352683852 0.12210179014220444 0.10787771066058674 0.10482141539200604 0.030402355864577974
0.0058240478785920044 0.015340744810209634 -0.06328027046978037 0.0037147499988677895 -0.06302813729250094 -0.025997129602299083 0.01351203671267466 -0.0485212447842106
-0.029486604884709697 -0.021867392190486817 -0.004472529142724323 -0.011104753148439204 -0.014421996920478889 0.01694671438874901 0.006506169559108064 0.024930955438648615
00000000: 36be 9beb 0e3f 5d3f f0e6 a040 3193 93bf
00000010: e71e dafc edf1 94bf 8f28 2887 369e 84bf
00000020: da6b f825 94ee 8abf aacb dff7 c4b0 813f
00000030: fe88 2ed5 37ca 95bf 3e87 f00c 5309 983f
00000040: f340 f7e1 972d 9dbf f84a 2542 7bf7 7f3f
00000050: 03f0 bb81 ab8e a33f 395b 339d 696d 80bf
00000060: de79 927c 70d0 88bf 7e3e ff4e dde8 6ebf
00000070: d13f ffe9 fafc 5cbf c1e8 72fa 4126 8fbf
00000080: 3067 0d6c 9bb6 94bf ea54 74dd a577 9ebf
00000090: f629 f6d1 4c93 a3bf ee6a 2441 374d 993f
000000a0: 4bd2 ed6f f66f fbbe d3bf cef7 5a9f 8b3f
000000b0: dec2 2e76 9266 82bf 340f 16c9 83c0 a1bf
000000c0: 181d b513 4d21 613f f996 5b01 345b 8fbf
000000d0: eb08 e9cb 44d4 853f 7c3b 8797 754a 993f
000000e0: 165a 1e54 1367 92bf 2317 57c6 cc76 96bf
000000f0: f4d1 8d6d c707 8e3f 8358 5014 84e2 7b3f
00000100: d630 fe70 7f30 a9bf 6a7a 5684 3c89 703f
00000110: d902 ae7f 0bea 8abf b357 d73d 9123 80bf
00000120: f443 94fb 20a0 9c3f d41e d985 3e1a a1bf
00000130: cb9f 98af 5c90 82bf 920b 6019 bd89 673f
00000140: 5f6c 6300 1ce8 4fbf 2a45 fdf0 ac35 81bf
00000150: a0ad ad6e 20b6 903f 81fc d5aa dd15 6f3f
00000160: 5229 8f96 b03d 97bf 75e1 e163 d2f9 87bf
00000170: 53e9 7d31 864d 5a3f 3505 7fb0 a733 70bf
00000180: 66e4 bdeb b41a 5b3f 506c 7096 d6f3 933f
00000190: 7ffb 814e 81e8 86bf 1d26 6f7f a9c1 67bf
000001a0: e6dd e607 2e00 713f 089a 2b61 f96b 7dbf
000001b0: c43e 7224 1e7e 9d3f 0ad7 9c37 8d09 87bf
000001c0: 2516 2e4c 122b 803f f14d 0509 6610 93bf
000001d0: c6d8 aba5 de57 803f 9abc 3089 1253 6f3f
000001e0: 1f2f 5182 6c03 8abf f1ea 84cb 894b 913f
000001f0: 2bca e411 e38b a73f f5f9 9d5d c22e a5bf
00000200: 3426 26d8 5c8e 723f 320e 351d 9644 a33f
00000210: 674d 3c85 4846 813f 9ae5 b8b4 d26d 9d3f
00000220: 7718 b142 29c1 693f 6d62 16a6 b89c 92bf
00000230: 8d24 a25c 5afd 98bf e603 a4b3 d186 95bf
00000240: a87b 1781 c4bf 763f 3500 6beb f02d 773f
00000250: c620 1faf e3bb 933f 2662 c77f ed0b 91bf
00000260: b774 a2cd c914 8cbf dc77 b41e eebd 933f
00000270: abd4 5610 5e5c 7ebf 8855 da0c 95a2 6a3f
00000280: 7afd 91af a2d3 943f 1d1f 764f a8f1 8fbf
00000290: 5494 a02d 0c60 81bf e3d3 38c1 5e68 80bf
000002a0: 3239 e180 e467 86bf ec34 9a48 6aa4 a93f
000002b0: 6249 0b4e 8530 6bbf cc19 ec43 d74c 743f
000002c0: 1e1a e5d0 566b 943f 88ac 0405 6c8f 7a3f
000002d0: d48b ecce 21b0 46bf 9fbb 296d 1872 a33f
000002e0: 836e 68d4 2c3a 753f b4f5 85ec 52ed 30bf
000002f0: 9834 3aed f7b7 74bf 903c 07f8 89a4 8dbf
00000300: ecce db65 12d2 613f 0080 4051 630b 7fbf
00000310: 5bfb 0db3 7717 823f e4d8 d036 e7bc 4dbf
00000320: bf45 f2ed fda2 a9bf fc56 5767 382d 72bf
00000330: 1d90 736c 4055 733f 2905 dbd3 a615 843f
00000340: 1cba dde0 e38c 94bf 9ab9 a894 e65d 893f
00000350: 7adf c2f4 9717 723f 1dc3 9587 e5e1 9b3f
00000360: e989 1aec 2748 9ebf 9300 2440 1388 7b3f
00000370: 611e 5059 dc14 5d3f b221 ea6e 49a0 833f
00000380: badf c026 179d 7dbf 99f6 b8a9 b80d 85bf
00000390: 72fc 83f4 a640 4bbf f277 3dbc 4416 663f
000003a0: 7b19 8c59 060e 903f c3dd 921e 718b 9fbf
000003b0: 6879 66a5 6f51 7ebf f717 7e9e d31a 84bf
000003c0: ddd6 a2eb eeaa 8cbf b78e 0237 128c adbf
000003d0: d1ec 3775 ece9 acbf 3a5d 7f46 b467 a0bf
000003e0: 9296 d235 6a98 b2bf fb62 92bf 65b1 b5bf
000003f0: c943 2fd9 481b bebf 0407 3183 2d01 b1bf
00000400: 3984 0ea2 a973 58bf 5c8e 5ff5 f2f6 673f
00000410: 53a2 b912 cb5a a43f 4702 d147 cde6 823f
00000420: e8bb 1763 b830 8abf af3d bb6f a625 8bbf
00000430: 46c7 2bb9 36be 83bf d1ad 9fc2 50f4 79bf
00000440: 9294 372b e8f1 81bf fcd6 0a69 8698 a1bf
00000450: e596 0c6f 72e3 8c3f ad49 7b82 22b4 8cbf
00000460: 5057 af13 6a4a 96bf 015e d66c a789 87bf
00000470: 5dc3 b3aa c419 a23f f8a4 6289 d79f 613f
00000480: e651 e007 02e2 6d3f f17c ede0 7311 633f
00000490: ab90 31ce 1ffe a23f 07d3 d646 1de6 913f
000004a0: add1 9ea1 15f5 a2bf 5c97 41d4 7735 58bf
000004b0: 6a1a 471d a8e4 b1bf e992 a9c2 3447 c2bf
000004c0: 7e28 0dcf 516e c3bf c32b d7e3 467e b4bf
000004d0: 5b61 fb92 1c06 b6bf 697a ce39 51a7 c2bf
000004e0: 78a8 41ce d45d a5bf f915 077e dd81 93bf
000004f0: ca28 a175 7dd1 74bf 4f44 efcb 21d4 823f
00000500: a2cc ee40 330f 87bf 94ec b320 058e 94bf
00000510: 256d c045 8de6 a1bf bb10 44e4 8bf1 833f
00000520: 9c28 f058 8494 893f 0612 3195 56f2 583f
00000530: cdde cf43 b390 953f f687 c8f3 98cf 81bf
00000540: c569 1d3d df69 623f 4f54 6072 7de9 923f
00000550: 5016 e033 8ec3 80bf 76dc 6d7d bb46 a13f
00000560: 8cba e29e a45f ab3f 0e70 9b7c 53e9 a43f
00000570: 173c 2600 1839 b03f 4d42 2ede a2d9 b63f
00000580: b85b b68b d47f b13f 9bc9 63e2 2eff ba3f
00000590: 0c2e 9a90 b248 bb3f 6719 5359 2638 90bf
000005a0: b49d f2e1 c6c3 bdbf 9cd5 2246 7bba b1bf
000005b0: f6db 4361 3e07 adbf a5d5 5538 f104 6cbf
000005c0: a782 21ba 4c34 84bf 3b2f f73d 59c1 8ebf
000005d0: d90d c7c0 7947 503f a702 079f 5a9f 92bf
000005e0: 7b0b 20ec f31f a1bf 007b 9b9c e380 8cbf
000005f0: 2536 055f 32e6 a8bf 8401 1752 e606 8fbf
00000600: 9f9b 5225 d277 943f ae05 7936 7f80 903f
00000610: b24e f348 bd7a 943f 0f0a 6946 072a 843f
00000620: 6190 a571 ec8a 843f ae01 9222 c8b9 9cbf
00000630: 47cb 16b8 2019 723f 8752 7a79 85b1 9e3f
00000640: dcad ef96 cce5 b13f bf49 7450 24cf ab3f
00000650: 346a 6f73 0ad2 c03f 0fc9 065b d573 c63f
00000660: 95d0 1118 a6a8 c23f 0999 ce79 2bb1 b83f
00000670: d481 4b17 a1a7 a43f f4e7 31e2 8aa6 b43f
00000680: b1d6 8b24 88d7 bc3f 640e 0210 45af c03f
00000690: 0b49 43da 6fec c13f 790c b648 d9c0 693f
000006a0: 59e4 bc04 0607 a7bf ed2c 5d23 734f a6bf
000006b0: a6f1 933f 791e b1bf 3cbc 7700 c3c5 a4bf
000006c0: 8580 33b7 3e53 94bf 3ea9 76b9 61bf 9ebf
000006d0: af72 a053 f639 b2bf 157e 4e90 b787 a8bf
000006e0: f284 81e6 98d5 873f 3a72 4dcf 544a 703f
000006f0: 5428 ed13 02e3 7bbf 75d8 5b88 1e2c 7abf
00000700: ac77 2b6c 12f8 483f 8086 4287 aa46 81bf
00000710: 23f4 b1f1 742f 91bf 6ede dc7e 93a8 8f3f
00000720: 78a7 11b4 ca3f ae3f 709a 5b2c f5c4 ab3f
00000730: 15a3 71af ca7d a2bf 932c 434a 8b62 9c3f
00000740: 4693 645e b352 c13f 010f f001 5c03 bf3f
00000750: 221e 06f6 5e22 c73f 6377 7c9e 3ef0 cc3f
00000760: 679e 711b 1042 bf3f 8a2b 41a7 df9d bb3f
00000770: e672 0787 93d5 ba3f a58c a390 cb21 9f3f
00000780: e1c6 b3f2 f4da 773f fd8e 0cea f76a 8f3f
00000790: 7155 26c4 2233 b0bf 0e27 4138 656e 6e3f
000007a0: bb2a 66ac 9c22 b0bf 291c bad5 fd9e 9abf
000007b0: 082d 44de 32ac 8b3f 6fcf 04cf c6d7 a8bf
000007c0: e97f 998e bc31 9ebf 3b50 3ad9 6764 96bf
000007d0: f2e0 5f66 c951 72bf 1254 d2bc 16be 86bf
000007e0: 9587 eea8 4789 8dbf 111d 4cc0 7a5a 913f
000007f0: 5758 a897 36a6 7a3f 1670 1119 8087 993f

b1 f8 [128, 1]
-0.024051284697115125 0.15190917945114332 -0.3738087155427998 0.09635715816382978 -0.03674406696929108 0.15331803831715488 0.3983398444218052 0.12723553865995246
-0.08989445378799137 0.07031831575125076 0.04172648077602705 -0.12505369512109843 -0.004244587226790128 -0.2957237922463333 -0.02032340402226404 0.03634170430179357
0.13823157586126705 0.2501033140604345 -0.006492621767112803 0.11291181739981652 -0.0387416039395376 0.11640217073527802 0.041563300659288906 -0.21383358707768416
-0.2862682323979566 -0.4568089776264644 0.09601837273671458 0.05884155628621827 0.08465229669002179 0.04093056945989123 0.03102524358957783 0.2827255072838601
0.19500564464210504 -0.04452782970091922 0.20422584601906538 -0.1161302736723213 0.058725357483585636 0.09723966918564615 0.0001660260172330544 0.0537544581885005
-0.17673478056955808 0.04411368709088017 -0.011709774236839537 -0.0070550601914723685 -0.13151155898661898 0.44493797171821525 -0.24872106020971127 -0.004503783551993577
0.04270331112872767 0.23715373082930807 0.020715503864886794 0.39102559249647506 0.08496301781819512 -0.1549760012574735 0.3571361322734729 -0.043268087611567085
-0.04623482429919383 -0.12364983660413933 0.21468178582056452 0.17520479740568595 0.04795335821321507 -0.15729996698458507 -0.02153794885214049 -0.14665742906849097
-0.06762560508561936 -0.14960301528833414 0.06608113920458981 -0.012192029537898717 0.22509418275387885 -0.21394143000039317 0.12258183279186198 0.11051186267591555
-0.059311766592293605 -0.025519435465423315 0.10774579176597397 0.16241474944745016 0.08213155581769206 0.17083760274778573 -0.09786262279118975 -0.311279986610664
0.007674161996236584 -0.08168124023452421 -0.14220620015425642 0.46249021641096216 0.03937145493613528 -0.22535504384489888 -0.12171211571209968 -0.452179127331596
0.2037748029368568 -0.2053264913514644 0.01701373600534469 -0.35660512298053376 0.06990732598525261 -0.2841370771178685 0.003020063950175405 -0.1168339580126157
-0.053649502994876815 0.12718732129813476 -0.1466177060081834 0.1998289872562331 0.044860891018984606 0.26596007977778696 0.14557384657917227 -0.05487292705116607
-0.10047825367456477 -0.42478803364117274 0.10392189203184135 -0.12268180229757081 -0.1403535936122402 -0.46450155834667745 0.27218148523656993 -0.1543095831217916
-0.059131575495316356 0.034035432250951986 0.17374746446255016 -0.1076455381773015 -0.3255756671300047 0.07710514344322086 0.04164155809602065 -0.21401374175879678
0.08637641352476617 0.04481355423127865 0.08006972502689634 -0.12384293989658093 0.29312698432199535 0.008792300457687002 -0.20990434188485174 -0.04436155993916049
00000000: 59b7 cd64 e6a0 98bf b738 da8e c271 c33f
00000010: 74d4 0d64 7bec d7bf fc94 0cdb dcaa b83f
00000020: fb07 e94b 1ed0 a2bf 51c2 3aec ec9f c33f
00000030: 7d10 1f67 667e d93f f27a b70e 4149 c03f
00000040: 0378 1cab 5203 b7bf dd1f 7692 6100 b23f
00000050: b3d3 9e5c 2c5d a53f 5400 656d c201 c0bf
00000060: 9671 2fb5 c562 71bf e236 167c 23ed d2bf
00000070: 18e0 798e a8cf 94bf c909 ea3e 619b a23f
00000080: b6a1 cc80 92b1 c13f acb0 a054 b101 d03f
00000090: ca12 7be2 0198 7abf 336b 10f3 c9e7 bc3f
000000a0: 9c6d d483 f0d5 a3bf 2fce 7d5c 88cc bd3f
000000b0: ad46 17f2 c847 a53f 977b a423 e65e cbbf
000000c0: e01b 02fe 3752 d2bf e930 dbb8 5b3c ddbf
000000d0: d325 b8fa a894 b83f 1544 caff 7a20 ae3f
000000e0: 6d9f d0dd c5ab b53f 8b49 7902 daf4 a43f
000000f0: 654b 45da 14c5 9f3f 3bde e1b9 2c18 d23f
00000100: 7df9 22e9 f1f5 c83f 9794 a708 5acc a6bf
00000110: 392d d390 1224 ca3f bf86 7faf b6ba bdbf
00000120: 6e02 ad03 4011 ae3f a5b5 06ef b2e4 b83f
00000130: ec12 eca0 e8c2 253f 381c de4f b485 ab3f
00000140: a155 4ecb 3e9f c6bf 53fd b8b6 1196 a63f
00000150: 964b 204b 4bfb 87bf 61ef b24c c4e5 7cbf
00000160: 525e 72ea 5ed5 c0bf cacf 511d dd79 dc3f
00000170: 13ad b679 17d6 cfbf a473 0631 8f72 72bf
00000180: 0925 7559 35dd a53f 56a4 04af 0d5b ce3f
00000190: 0fba 7aee 7136 953f f2f7 ea34 9006 d93f
000001a0: 860b e6e6 22c0 b53f f968 88ec 40d6 c3bf
000001b0: 6368 1582 51db d63f f018 811a 3c27 a6bf
000001c0: b649 9a44 17ac a7bf 8ada 5e04 84a7 bfbf
000001d0: b8b6 9258 b17a cb3f 54d8 7a5d 1c6d c63f
000001e0: eaac 84b2 578d a83f 852a eec2 6722 c4bf
000001f0: 2e7e c547 0b0e 96bf 1745 c8ae abc5 c2bf
00000200: bb06 3762 e94f b1bf e2ef 050d 3126 c3bf
00000210: 8921 c48b b1ea b03f 5fdd 1881 22f8 88bf
00000220: 1950 b9dc e2cf cc3f 8e3a 8eca 6e62 cbbf
00000230: e1be ece2 8561 bf3f 8b5a 0364 814a bc3f
00000240: 6a53 90a3 1c5e aebf 770c f252 c421 9abf
00000250: b79e ea6b 3a95 bb3f 08e6 a1aa 01ca c43f
00000260: d1e2 34da 9206 b53f a548 5dae 01de c53f
00000270: d991 635c 860d b9bf 7d18 99e4 02ec d3bf
00000280: e7c7 c42c f16e 7f3f 3306 81cf 0fe9 b4bf
00000290: 1bb9 7911 d033 c2bf 751f 8d90 7099 dd3f
000002a0: a47a b1ce 7e28 a43f e3b7 a61f 6fd8 ccbf
000002b0: edab 8274 8628 bfbf 6fac f4b8 80f0 dcbf
000002c0: 246b 2ef1 4a15 ca3f 14b1 ad72 2348 cabf
000002d0: 9626 e77e 0c6c 913f 9765 324b 9ed2 d6bf
000002e0: 3783 db4e 72e5 b13f 7a58 7347 4d2f d2bf
000002f0: 0b0a bb7c 88bd 683f c4f6 b98c d4e8 bdbf
00000300: 718a 9e99 f277 abbf 9a7d b894 ac47 c03f
00000310: 9eeb 2876 5ec4 c2bf 1877 870a ff93 c93f
00000320: f087 97b7 01f8 a63f 33fa 2b6d 7d05 d13f
00000330: 90f0 1aef 29a2 c23f feb8 3de6 4d18 acbf
00000340: 81cf 7d5d f1b8 b9bf 9d24 0e26 ba2f dbbf
00000350: da7d 9d07 a09a ba3f 0cb2 ae18 1368 bfbf
00000360: 1867 3847 1bf7 c1bf 9d8f 82be 64ba ddbf
00000370: d2bc 6ae4 6b6b d13f aad6 7b9a 6ac0 c3bf
00000380: 23a1 d36d 7e46 aebf a49b d898 176d a13f
00000390: eb95 d05e 5b3d c63f f925 0872 a88e bbbf
000003a0: 9797 ac52 3bd6 d4bf 6228 71a5 29bd b33f
000003b0: af91 5ad4 0a52 a53f d6d2 df62 cd64 cbbf
000003c0: 8d11 3cbf c31c b63f c185 ae5b cdf1 a63f
000003d0: 47e6 6312 737f b43f 4a41 b2c0 2bb4 bfbf
000003e0: 9e3c cfae 97c2 d23f 5004 6197 b201 823f
000003f0: 1c88 d73d 25de cabf 23c7 46f2 8eb6 a6bf

W2 f8 [64, 128]
0.027230281095748116 0.01781022297671713 -0.050472388960204236 0.1443719187566764 -0.07247363740079625 0.11369100840619653 0.1201845731770136 0.0775616045747806
0.12621597555629363 0.04964325898623163 -0.08428219987454698 0.10533261208559884 0.10074004218210471 0.06045643830727113 -0.11292036639806018 -0.027175610542943294
0.0499874934066271 0.03969274977275965 0.08338481162976862 0.054439707112315446 -0.028025435097646323 -0.09427786739917193 0.0435138688937316 0.11770299417259183
-0.046576133631031816 -0.14126950647977274 -0.06304741017835266 0.09292053951993608 0.03755540954439131 -0.0295316848937515 0.0433864148429936 -0.03218314364828858
0.09948599258724487 -0.055046236238017146 0.10013509738520206 -0.006996682152900513 0.07761070481695106 -0.0820990185048848 0.04712476073992914 0.07746297827846203
0.05384260142518993 -0.10305623286497943 0.1253493194314812 0.20442482126793932 -0.059185658225559955 -0.034274102801176716 -0.0018233083834027146 -0.06241579260883341
0.08414602919447127 0.028832609997827913 -0.037735034692045505 0.06162180832728696 -0.07275212047761567 -0.010613386217442006 -0.15154211908522663 0.02438650175586617
0.19136988998262752 0.07513955525405111 0.07509576374364586 0.14148405105337072 -0.01821221109119095 0.04342607783287981 -0.07897865595740745 -0.026840860887916033
0.1633654560834881 0.007452045793108509 0.020010509651821006 0.1284393385467254 -0.018890445890041727 0.024199443042190343 0.008854999996213466 0.02246291059717978
0.031903350257401056 -0.04788861407009917 0.02731670663440485 0.010494963842260455 0.08994825032844544 0.008024102758216023 0.20940449776032596 0.023095919802697703
0.12941609203353105 -0.027924084323983855 -0.014886084711509751 -0.0577951679596675 -0.03893046195268534 0.04036693023863967 -0.0060019617089230905 -0.014156358687678583
-0.0053104366863305965 -0.08308878118202616 0.042656319984377855 -0.03407895086000219 0.040586896189437255 0.1453633419353659 -0.08588472478776107 -0.02122839487852315
-0.05032952123040827 0.09875247846712945 -0.1229909132796297 -0.10370853884882518 0.16707805810104037 -0.043267706196442886 0.04187350646731165 -0.16006896327675071
-0.028844468933399224 0.10755855257554973 0.10314839288116003 0.04241741920906169 -0.09679202913145525 -0.13377441308535226 -0.14727058816944805 -0.052557757342469764
-0.14202324627712684 0.002157302588436181 0.14322599551649443 -0.1268601674107552 -0.03063378687895581 -0.0610354663482683 -0.020216730057685227 -0.14552240998855298
0.03584982176873199 -0.025319164053961757 -0.06345837609279056 0.015224380985851913 0.052083843935856314 -0.019138822169173245 0.05937477591002355 -0.12880138339544117
0.12304705461382892 -0.012902425477907738 -0.22898660901890586 0.16150775457129618 -0.06678876005480036 0.025714868383422063 -0.06234389984332914 -0.06356488992566456
-0.039712994171411276 0.020465021421551433 -0.05254434153267668 0.000787143295667596 0.05340291671988171 0.10684790972089236 0.0006968316084264897 0.07696690410913834
0.01553763104520477 -0.06989238448919224 -0.03478090472704124 -0.05898898803103378 -0.14782726017913175 -0.1530688449149917 -0.1453798172541125 -0.012125512221358195
0.006735042267943641 -0.025331002133051866 -0.06290533304858387 -0.11113050831016055 0.043705164871875354 -0.08486322490092987 -0.018108575313944955 -0.23743539129080535
-0.13817913042303812 -0.011837049824964288 0.02940533701211282 -0.08492665371402111 -0.11588107940144694 0.06579243571818418 0.04119153814453199 -0.02622177540868484
-0.0822386680990764 -0.0034320030578698073 -0.15987555538950757 -0.16805356729595078 0.008968820837266075 -0.04917570272142861 -0.2484104142490636 -0.06160363708202672
-0.005898671435493297 0.005939171048772203 -0.021878652854790244 0.11140070889310374 0.30644321457294954 0.0034107273956916627 -0.05698057909607037 -0.029242356851248753
-0.19009938401701418 0.052641799378871174 0.025052630388278926 -0.00865348106680742 -0.14794982046559893 0.1311499061950729 0.08413584376245889 0.10547812613773316
0.01944694674112545 0.08247241409174771 0.022362152757781847 0.008101021780431808 0.05199607885668072 -0.03523031735455789 -0.0929062370200216 0.1572232852651812
-0.05667956965916271 -0.01352599132088143 -0.14406994707981816 -0.05534293394595259 0.016307587069131185 -0.004174129915555248 -0.06929685300812176 -0.008090217493525014
-0.07874948089780742 0.06383885688729288 -0.1617713676482453 0.06681593285160208 0.042623058042581076 0.19247776475890271 -0.08716893818566095 0.027330020100496465
0.04138636401575219 -0.04911250399333002 -0.10224324075696281 0.16125654368008766 0.021746283671761946 -0.09133084205121679 -0.033112015122592105 -0.04037762666206615
0.09066399507740222 0.05625799753463065 0.12640791369132323 0.13155252973031792 -0.18865408509638273 -0.12516501776364702 -0.08923952495984855 -0.17275435350099982
-0.14979376161045868 -0.14658685391608445 -0.043541757903363246 -0.07639612300301281 -0.05028954685167391 0.1731421675466182 0.015384654511804222 -0.0831492904273585
0.13689900655888068 -0.019056977240120846 0.2243498566537715 0.013397861945987242 -0.1811032871275792 -0.0791840972945983 -0.06913368800562943 0.11395088534542823
0.09954372704905091 0.1164865023980857 0.03315096611805461 0.12333892113925547 -0.16504957782943672 -0.005550285159930485 -0.00446854178604186 0.0033623595504016523
00000000: 4589 113b 41e2 9b3f 2ebc e0d4 d73c 923f
00000010: 51c1 de57 84d7 a9bf 1ba6 c26e c77a c23f
00000020: a765 75de a18d b2bf 2a31 f49a da1a bd3f
00000030: 096c 478b 6ac4 be3f 7bef 12cb 13db b33f
00000040: 3d9e 9f57 d827 c03f 391d a05b d76a a93f
00000050: f79a 18ac 8493 b5bf 7f22 1cfc 13f7 ba3f
00000060: 6dde 9172 19ca b93f b588 b972 25f4 ae3f
00000070: bb64 bb60 59e8 bcbf 4983 1f5a ecd3 9bbf
00000080: deec c7f2 f597 a93f d61a 53ac 9b52 a43f
00000090: 8fd7 eefe b458 b53f d96b 4d73 85df ab3f
000000a0: 0060 cd1c b3b2 9cbf 3c50 3725 9822 b8bf
000000b0: 485b a427 7347 a63f c4d0 9c8e c821 be3f
000000c0: 2a56 70b5 d3d8 a7bf f357 2083 1e15 c2bf
000000d0: fe42 d004 e023 b0bf 9963 5df6 a3c9 b73f
000000e0: 62e5 8f6f 763a a33f 8afc 41d3 8d3d 9ebf
000000f0: f7c4 ae81 be36 a63f 735b e71a 4f7a a0bf
00000100: 3f83 92fc e977 b93f 4a02 d230 052f acbf
00000110: 0583 7328 74a2 b93f 8d78 6f90 8da8 7cbf
00000120: e620 028f 4bde b33f 2a1e 83f7 7004 b5bf
00000130: 956d 6b94 bc20 a83f 2754 5b1e 9dd4 b33f
00000140: f068 81e8 4191 ab3f 07d6 cdad e461 babf
00000150: 605c c44d 720b c03f 9e10 ebb0 972a ca3f
00000160: ab28 f124 954d aebf b1f7 420d 608c a1bf
00000170: dea7 2478 82df 5dbf 0a89 0478 f6f4 afbf
00000180: fb7f 7a1b 988a b53f 28f8 feb3 4b86 9d3f
00000190: 9cde d4a7 0152 a3bf 36df f8c6 e48c af3f
000001a0: b67f 2a0a e29f b2bf 7d3d a195 78bc 85bf
000001b0: d002 b86e bb65 c3bf 356b 056e c6f8 983f
000001c0: 710e 75fd ce7e c83f 16bf 738c 583c b33f
000001d0: a5db 58d9 7939 b33f 6504 173e 261c c23f
000001e0: 181a 19cc 38a6 92bf f5e9 2b60 f13b a63f
000001f0: 2d4a 6bf8 f137 b4bf 7e20 d7ae 2b7c 9bbf
00000200: c15c 96c5 28e9 c43f 5adf 834f 0986 7e3f
00000210: b39a 1f92 a27d 943f ccfd 4943 b370 c03f
00000220: 9ce5 375d 0458 93bf 7e5d ca21 bdc7 983f
00000230: 5b58 1efb 9122 823f e82a 8d69 8400 973f
00000240: ba0b facb a255 a03f 844d 903e db84 a8bf
00000250: b64b 8426 e9f8 9b3f 823b cd33 627e 853f
00000260: 703b 7e39 d906 b73f 2006 69d7 f06e 803f
00000270: 2f09 c23e c4cd ca3f 0ffe e4f0 74a6 973f
00000280: 2219 6edd b490 c03f 00df c493 2198 9cbf
00000290: 7ae8 0278 987c 8ebf b9d7 8108 5497 adbf
000002a0: 5f56 cf89 b1ee a3bf 8e03 6e6a f9aa a43f
000002b0: 04d6 0654 8395 78bf 2d90 c04c 02fe 8cbf
000002c0: 1605 537e 65c0 75bf 9b5f d76d 4e45 b5bf
000002d0: 18ea 9996 0cd7 a53f 6af5 d9d6 cb72 a1bf
000002e0: 543f 8f3f cec7 a43f 1f28 d317 449b c23f
000002f0: 267c 3094 8afc b5bf a7d3 ff76 e5bc 95bf
00000300: 4577 6a7f cac4 a9bf d24e 6aa9 d747 b93f
00000310: 15be 3d1e 557c bfbf 3bf1 ab8e a48c babf
00000320: fc29 b655 d062 c53f 895e 2c4e 2f27 a6bf
00000330: 1a20 b1b9 7170 a53f 216b 30c9 237d c4bf
00000340: 262f f58a 6789 9dbf bb92 b711 f588 bb3f
00000350: 1d3e 0fde ee67 ba3f 8b39 9168 bcb7 a53f
00000360: 8111 a2c7 5cc7 b8bf 9a20 9f1c 851f c1bf
00000370: 00dc ec3b c3d9 c2bf f9bf dfb1 d9e8 aabf
00000380: 0519 0457 d12d c2bf 2fbd 1302 31ac 613f
00000390: e516 57bb 3a55 c23f 1fde 1837 f43c c0bf
000003a0: 25e5 30a3 765e 9fbf b24d b967 0a40 afbf
000003b0: 4622 b8c9 b1b3 94bf 3e33 de73 7aa0 c2bf
000003c0: 03d6 2068 e85a a23f a898 4b56 44ed 99bf
000003d0: 46ce f9e1 ce3e b0bf 9216 7dd3 f52d 8f3f
000003e0: 327d b5cc bbaa aa3f b4c5 339d 2099 93bf
000003f0: 9854 7be1 5e66 ae3f 0a76 ae50 907c c0bf
00000400: 507e 6f03 0380 bf3f 71c8 bb3b 966c 8abf
00000410: 4fa4 7ae6 6e4f cdbf f890 f73d 49ac c43f
00000420: 86fe 2c74 1119 b1bf 3d35 e99a ff54 9a3f
00000430: 1449 dd25 8aeb afbf d891 67e3 c945 b0bf
00000440: d088 62f6 4255 a4bf 10b9 de56 c8f4 943f
00000450: d905 f288 17e7 aabf 28fe 275b 09cb 493f
00000460: 9d53 a589 a057 ab3f 74ae e575 625a bb3f
00000470: 2e8c 087c 72d5 463f 02eb 0560 1ab4 b33f
00000480: 3a5e 9289 31d2 8f3f 9adb 9ea1 77e4 b1bf
00000490: f5e6 a780 cdce a1bf ccb8 d5fc cd33 aebf
000004a0: 999c f6ef 00ec c2bf 2723 7989 c297 c3bf
000004b0: 5f6c 4d4c ce9b c2bf 95fc 80b3 42d5 88bf
000004c0: 86ab 7224 3496 7b3f 6809 f2c6 5ef0 99bf
000004d0: 340a 305c 901a b0bf cead c78a 0c73 bcbf
000004e0: fefc 94fb 8560 a63f 6624 95a7 98b9 b5bf
000004f0: 448f 00eb 0d8b 92bf 77e4 406c 4864 cebf
00000500: ad0d 148f daaf c1bf 95e5 08ef 053e 88bf
00000510: caf5 2dc3 6e1c 9e3f 0aac 42d0 c0bd b5bf
00000520: f51f 41e6 61aa bdbf 39d9 bbe7 c5d7 b03f
00000530: 7bc8 67aa 0e17 a53f 781e 4b8f e1d9 9abf
00000540: e6be f3e5 970d b5bf bc19 969c 6e1d 6cbf
00000550: 6bf4 e95c cd76 c4bf 3491 c17f c782 c5bf
00000560: 1e1c 70c1 3e5e 823f 8688 e4c5 8e2d a9bf
00000570: cbbf 9796 e9cb cfbf 5af6 290d 838a afbf
00000580: 9a14 7c8e 3429 78bf 229c b716 ac53 783f
00000590: 72aa f789 5b67 96bf f274 72c1 c184 bc3f
000005a0: e200 2b00 c49c d33f a196 d753 d0f0 6b3f
000005b0: 3314 73f7 8e2c adbf bd17 5659 b5f1 9dbf
000005c0: 8fe1 ab36 2d55 c8bf 943d 78ad ddf3 aa3f
000005d0: ef25 c990 65a7 993f c58d 6d91 eab8 81bf
000005e0: 19a6 2c0c 05f0 c2bf 6f9b fd26 85c9 c03f
000005f0: 8291 6139 ed89 b53f 1476 344e 9d00 bb3f
00000600: 9d6e 0a81 e6e9 933f 44a2 5881 e91c b53f
00000610: 1c23 0dab 1ae6 963f 7b9c e3bc 4497 803f
00000620: 475b 6be4 3a9f aa3f 6726 bb49 b509 a2bf
00000630: 446d 9801 b4c8 b7bf da1a 3182 e41f c43f
00000640: a82d 13c4 1a05 adbf 160d f4d2 83b3 8bbf
00000650: a1aa 854f e270 c2bf c2a0 b9b6 e855 acbf
00000660: c8ea 8da4 efb2 903f a802 a077 e418 71bf
00000670: d3b6 6245 70bd b1bf c3f0 6a9c 9a91 80bf
00000680: 9876 080d ed28 b4bf aa81 8b4a be57 b03f
00000690: 683c bd96 ecb4 c4bf 7309 7356 d91a b13f
000006a0: e560 b280 b0d2 a53f a25f 6c84 1ca3 c83f
000006b0: 8705 bc1a b450 b6bf 0364 1f9a 66fc 9b3f
000006c0: 2961 e5ef 9730 a53f 22b9 f32c 4625 a9bf
000006d0: 1ac8 49ef 9c2c babf c79c afee 0da4 c43f
000006e0: 0d12 b864 a844 963f d9e2 b943 7561 b7bf
000006f0: 01c5 1cdc 0ef4 a0bf 44e1 0154 60ac a4bf
00000700: d23a c86d c135 b73f 9c70 1927 d9cd ac3f
00000710: e941 a16f 222e c03f 8fea 729a b6d6 c03f
00000720: 3975 df2a d125 c8bf b2f5 f244 6805 c0bf
00000730: 608f 36c9 66d8 b6bf 2ea3 438d d01c c6bf
00000740: b580 a125 712c c3bf 1aeb cba7 5bc3 c2bf
00000750: 621c 69f4 1a4b a6bf 71d1 d641 b28e b3bf
00000760: b700 1e2e 8dbf a9bf 6eec 95c5 8529 c63f
00000770: a85c e85f fd81 8f3f 4e34 129b 4549 b5bf
00000780: 713c 031a e885 c13f 111a 0718 ac83 93bf
00000790: ac59 9800 7fb7 cc3f bf9a 2797 5670 8b3f
000007a0: 4d9d b47b 642e c7bf 605b 3eb4 6845 b4bf
000007b0: 4d3a 09d1 beb2 b1bf 0bab e89d e22b bd3f
000007c0: 8197 329c b27b b93f f2a6 3936 0fd2 bd3f
000007d0: 569e 9dd6 29f9 a03f 5ff5 9db8 2393 bf3f
000007e0: 277e 7f35 5820 c5bf ed0e ed53 e5bb 76bf
000007f0: 9d4b 4f0d 9b4d 72bf 05c5 cd09 618b 6b3f

b2 f8 [64, 1]
0.09961864406040667 0.26312788601444353 0.3685907673544017 -0.19283800793031994 0.040469720151528256 0.09556137735066886 -0.05373978621640577 0.09671831263864522
-0.004130613392953823 -0.05469904596891111 0.058265104858088786 -0.001840818349399251 -0.025958962354303755 -0.014676747916084502 -0.138330011418081 0.21326650875535108
0.3508112298334202 0.10021061891041723 -0.03924657906435024 0.022029737872089932 0.1699884310271365 0.02115310769014239 -0.08644306499727551 0.0332908684747684
0.13040069055968012 -0.15864917821874816 0.2244052976081735 0.14604300011454358 0.13374961162285387 -0.2048040793353972 0.08613315853196406 -0.09951283867567973
-0.2368516099390273 -0.02418464343189655 0.14229062756006688 -0.16114220335350898 0.09473535841470541 0.4297232355287801 0.13614118875572048 -0.18952024687768343
0.10157507321566582 0.11908980801157988 -0.11784383877005734 -0.09049207715447873 0.05385474481083595 0.09706330987752414 0.38608047974132575 0.031441223215217876
0.3550869137438362 0.13945956523362557 -0.2113479181553493 -0.1681970548828307 -0.11507720241138258 -0.01808590194864902 0.2510972603501962 0.10707408394984602
-0.003260650881017809 0.032294778285096 0.339439758225369 -0.0546618721851151 -0.026625361884296834 -0.0456644472360267 0.04787683581237298 -0.05696773572861906
00000000: 19b2 4f82 9b80 b93f e93f 4658 16d7 d03f
00000010: c342 d9ba fd96 d73f 0d46 be74 eaae c8bf
00000020: 5de4 0e79 72b8 a43f ba59 7bde b576 b83f
00000030: e544 9600 c883 abbf 9c10 b505 88c2 b83f
00000040: 6b66 f616 43eb 70bf b724 1e6b 8301 acbf
00000050: f11c ba7f ecd4 ad3f f46c f2a6 f328 5ebf
00000060: c839 6679 fc94 9abf 6f60 7dc2 d70e 8ebf
00000070: 9048 8c3d ccb4 c1bf aed9 3724 514c cb3f
00000080: a30f cdf1 b073 d63f 1da2 ee32 67a7 b93f
00000090: ce5d 1fab 2018 a4bf 7be1 ccae f68e 963f
000000a0: 1ade fa4f 2ec2 c53f 4fa3 f306 29a9 953f
000000b0: d919 21f9 2121 b6bf e589 b52e 800b a13f
000000c0: b631 aa46 f8b0 c03f 6d4f fec3 9d4e c4bf
000000d0: 3b5c 2313 50b9 cc3f be9d a67a 89b1 c23f
000000e0: 0aed e20f b51e c13f 239d 6a23 0537 cabf
000000f0: d3f7 fe9a d20c b63f 38e8 a463 ac79 b9bf
00000100: 8bb6 584f 2751 cebf 67f2 6bf2 dbc3 98bf
00000110: 3aeb f24b 9436 c23f 5e50 b4c6 4ea0 c4bf
00000120: db7e 2a92 9340 b83f c85a bbe2 9580 db3f
00000130: b914 ac10 136d c13f dc7e 220f 3342 c8bf
00000140: b7d2 8cf1 d200 ba3f f157 b26e ab7c be3f
00000150: 3170 8d89 032b bebf c9f3 ec1f 7d2a b7bf
00000160: bed8 645f d992 ab3f 4bc3 901d 24d9 b83f
00000170: 243b 87e6 8ab5 d83f fa43 e962 1019 a03f
00000180: 411c 7176 beb9 d63f 7c7a e59f cfd9 c13f
00000190: 4a07 47d6 720d cbbf daac 0029 7b87 c5bf
000001a0: 5c3f df14 b375 bdbf c36c 8d55 1c85 92bf
000001b0: 406f 543e fa11 d03f bc51 d008 3569 bb3f
000001c0: 2b82 b99c 14b6 6abf 64d2 21f1 f088 a03f
000001d0: 1c91 2289 61b9 d53f 4114 bf12 a4fc abbf
000001e0: f51c 26ca ad43 9bbf 31f3 ef96 5461 a7bf
000001f0: 2ca7 1908 5083 a83f b65f c303 e02a adbf

W3 f8 [32, 64]
-0.09458345611404737 -0.021184048026573064 -0.08212722038154986 -0.017646939264777603 -0.07165921602690087 0.13590622168911176 -0.0008671653725665735 -0.0822433296892517
-0.15956107207535503 -0.06913458708842322 -0.054549223003090605 0.008604030008163259 -0.0054827165438783776 -0.025313889373945922 -0.08688064973544836 -0.09100453365354078
0.047147485902784544 -0.07274642588162894 -0.016883353358353972 -0.11307521178176456 0.07377363793466897 -0.047412668782328866 0.039142729556886705 0.06148224794517479
-0.1980469211492223 -0.06841586264562077 -0.07227854249518517 0.12019157819509708 -0.16711438451128258 -0.19162721041063766 -0.041109863053477476 0.053071785810995795
-0.03690215624126454 -0.0973972976449275 0.2589741945438291 0.09882709172672274 0.044562979680334104 0.02124573303216695 0.08176825567973496 0.012582397147704105
0.11798602670293593 0.0174014658735982 -0.01608910248791375 -0.06036012838404141 -0.08805571273899648 0.13281502960249217 0.0764356045979455 -0.1217644449995558
-0.16092929144864962 0.05058451103819734 -0.05833775545291852 -0.14078688965897215 0.2599793189453119 -0.11314935052132975 0.026608757700990627 -0.17138243052050084
0.1756157037626369 0.08255146022410657 0.2735185951571102 0.08538331866819315 -0.08548220584045679 -0.013179984675358195 -0.0657944379239124 0.03344232152051479
0.322405631472202 0.21798288073390423 0.05721429603908332 -0.2193624046874101 -0.00910065547885863 0.20547071438670994 -0.03421726397006178 -0.043166066575183536
-0.04899781308591494 0.25902503897307155 -0.18075790592977384 0.08337887238283834 -0.17921230279346134 0.03292172525012406 0.05227310945992638 -0.17760508791000987
0.16874171693487977 0.08074437377797851 -0.05146200501718194 -0.4078177411629816 0.11530240963004101 -0.3176649734433839 -0.1793041244628768 0.19780287324741674
-0.38146922536508837 -0.26338599411388725 0.32246837065430317 0.17635295442194143 -0.01445043730936644 -0.2566163483319929 0.5612918205808206 0.14753633065825744
0.02852707031716451 0.04012860436307354 0.009248366067475434 0.240621620240725 0.5239969233924517 0.4815386773153775 0.435450262597321 -0.11291781212214283
0.039589414415127186 0.482399305337048 0.2649176201630192 0.2576124538907617 0.23966236480023076 0.33750578408972465 0.08319323511615197 -0.15664901498088943
-0.2877125727089676 -0.0841752960822222 0.19218384991377854 -0.10301758244089997 0.3163377698281289 -0.10408683472220102 0.1016565957302472 0.016285918584903723
0.07996899733100597 -0.01920700393166259 0.19250580081754226 0.16619275603844005 -0.17773601361993074 0.3986771784955133 0.06475647422252603 -0.2058033755975114
-0.054598792053938784 0.10962826451936239 -0.13721411377489207 0.04317024240291054 0.0493343259107687 -0.16473733579682232 0.1345693053625389 0.07745883198231562
-0.05840295381672871 -0.06498882172784919 -0.03162718186282964 -0.08461998969413338 0.08544662436164209 0.0759491873618208 0.025917404085631784 0.05303840299820274
-0.02394783785529842 -0.009506215278547682 -0.06322834833531542 0.0879265296286965 0.11601510260409614 -0.07042461748752057 0.1363107421280092 -0.0866053353761229
-0.012413631839295699 0.006233769685162979 0.048221741153280394 -0.023611090416378554 -0.06331430435032298 -0.04634491440033723 -0.10108150777429983 -0.0969452778132674
0.09350033899173997 -0.02189688750371136 0.08188287912239277 -0.05141177183126292 -0.08884177084238709 -0.05094247408662878 -0.10543117996080698 -0.048784620349231735
0.10802620818039296 -0.009251002306024943 -0.18329936289027876 0.048100192940445964 -0.037092347471821815 0.00037576079933907474 0.15066194981656483 0.12660098766861388
0.007452449711638261 0.04081901484466265 0.1420160807699011 -0.02355709644731267 -0.021996355214386247 0.03331600167707846 -0.08796992598872283 0.15983033163457344
0.11430310986281908 -0.02365095475442884 -0.13779763377095697 -0.10602913725960021 0.1254405520520422 0.09046566699774093 -0.03664087113855527 0.05542039965100557
-0.03528834947581236 -0.16216320957173322 0.3648362807375233 0.02101326941751006 0.056976164464469015 0.30229182140380073 0.1843265997011235 -0.020187138763805495
-0.06515830724673974 -0.015846443675802374 0.07808848080395162 0.1105069261821614 -0.1467076566315196 -0.1789963242361741 0.004249587638438819 0.1456707916001742
0.04606375543655743 0.02299691116876337 -0.022909244018479973 0.20762771220281098 0.022784985269538677 -0.07788517687589085 0.2865302803472638 0.34681997632101585
0.09085128463508364 0.32552660478248613 0.08672518744895108 -0.12621364158182702 0.00925671465064292 -0.16614980200590707 0.014507863250642938 0.06473375802362533
-0.2784928407289587 0.03522110054712036 -0.1482897478438769 0.12331383399935948 -0.2567142800087256 0.038589249306375036 -0.12909269028346354 0.09694924805371939
-0.17375503196491512 0.2048148711486028 -0.012418003095918015 0.009315267592574134 0.06140695759547972 -0.07431040187664247 0.13994916297448518 0.1916904317190615
0.11068751949121503 -0.046754778611715266 -0.2453986385174572 0.057463701032870615 -0.11920184396577081 -0.054438993576104516 0.009097348727682177 0.08078834981674486
-0.20748069672435415 -0.16507696841607566 0.2508196146227122 -0.08374461303656953 -0.14934929842367886 -0.14282154166813973 0.046600212950649 -0.024886885715487205
00000000: d6a2 c012 9f36 b8bf 4954 e265 45b1 95bf
00000010: a96f a61d 4a06 b5bf 8c1e 110c 0a12 92bf
00000020: cae3 4a25 4258 b2bf fe23 bd04 6065 c13f
00000030: 58bb 2b75 4f6a 4cbf ed58 541b e60d b5bf
00000040: eea0 2349 7f6c c4bf bf36 91e6 cdb2 b1bf
00000050: 9e16 a431 e0ed abbf 4fac fd5b fd9e 813f
00000060: b7b4 fc83 0b75 76bf 348e fb5b e2eb 99bf
00000070: fddb 446d cf3d b6bf 8066 d4b7 124c b7bf
00000080: 8608 151c b723 a83f f8fe 0f80 829f b2bf
00000090: d771 15aa de49 91bf ad48 9740 7ff2 bcbf
000000a0: 5181 3c42 d4e2 b23f 2120 ac2b 7946 a8bf
000000b0: 6260 a50e 840a a43f b40d 6be8 997a af3f
000000c0: 3c67 b4fc 9959 c9bf 8c2f 97b4 b383 b1bf
000000d0: 6828 38b8 d880 b2bf f141 9a11 e0c4 be3f
000000e0: 7064 1510 0164 c5bf 1b63 de8c 3d87 c8bf
000000f0: a927 b71a 5a0c a5bf ee0d cca0 392c ab3f
00000100: da8d 6ae4 d6e4 a2bf cc8e 1a80 07ef b8bf
00000110: 4cb7 0480 0893 d03f 26d1 ec76 bb4c b93f
00000120: f5be ad78 f5d0 a63f 07f8 3502 71c1 953f
00000130: 5dd4 feaf c3ee b43f e691 09c2 ccc4 893f
00000140: baf7 120e 5534 be3f 5079 519b b0d1 913f
00000150: 85c3 0764 a979 90bf 869c c8d2 85e7 aebf
00000160: 40a1 70b6 d18a b6bf 49ad 4738 1500 c13f
00000170: 9f87 ffa5 4891 b33f ecb3 1665 f42b bfbf
00000180: 83c5 debd 5499 c4bf 09b9 2f89 36e6 a93f
00000190: 5fac 953f 72de adbf 713a 6507 4e05 c2bf
000001a0: f869 204c 80a3 d03f 2581 0d18 5bf7 bcbf
000001b0: 4da7 7380 533f 9b3f cce6 1807 dcef c5bf
000001c0: d88a 294c 937a c63f 0b4b e6ad 1722 b53f
000001d0: bc0c 4323 5481 d13f 30c8 4d61 aedb b53f
000001e0: 1486 796e 29e2 b5bf 02ba 2399 1bfe 8abf
000001f0: f253 247f e7d7 b0bf 5742 771a 5a1f a13f
00000200: 9a09 ce3a 4ba2 d43f b384 ebef dce6 cb3f
00000210: 1cfb b334 314b ad3f 215b 0d39 1114 ccbf
00000220: 7f1b 3b4d 5da3 82bf 84d0 4947 dd4c ca3f
00000230: 0487 6bdb ec84 a1bf d388 79d8 dc19 a6bf
00000240: f81d 8fc9 3d16 a9bf 8501 cfc1 dd93 d03f
00000250: 051d 3b37 1323 c7bf 2ec8 0f5a 5158 b53f
00000260: 48f6 c4c1 6df0 c6bf 92ea 8dca 1ddb a03f
00000270: b364 2e7f 8ac3 aa3f 059e 1676 c3bb c6bf
00000280: b264 da1d 5499 c53f 0161 b6cc a9ab b43f
00000290: e61d 1259 3a59 aabf a582 4195 af19 dabf
000002a0: 50d2 826e 7584 bd3f e989 0178 9f54 d4bf
000002b0: 6890 4d03 70f3 c6bf bc84 d3c3 9a51 c93f
000002c0: 8fe7 d7e5 fd69 d8bf d963 bced 50db d0bf
000002d0: cb18 7d60 52a3 d43f acc9 e5cd bb92 c63f
000002e0: b5c5 40dd 3098 8dbf 531c edf9 666c d0bf
000002f0: 8605 9d43 1af6 e13f 5414 9371 78e2 c23f
00000300: 826c 4048 3336 9d3f 823e bf86 bc8b a43f
00000310: 27f2 68ae cef0 823f 317d d272 b0cc ce3f
00000320: 389b 2532 95c4 e03f 7e08 b599 87d1 de3f
00000330: 7ef7 38c7 6ade db3f 6252 3386 2ee8 bcbf
00000340: de8c 5c50 1045 a43f 8e49 0256 a1df de3f
00000350: 0fff ae08 69f4 d03f 4633 20f2 b87c d03f
00000360: d912 73a1 41ad ce3f bc13 38dc b199 d53f
00000370: 0183 12e0 264c b53f 8792 252e 130d c4bf
00000380: e5b6 9bfe e169 d2bf 11e4 cd1f 838c b5bf
00000390: 837a 19fb 7a99 c83f 6724 7f3b 5c5f babf
000003a0: 5cb0 f9c5 e03e d43f 6f75 134f 6fa5 babf
000003b0: e787 15aa 2a06 ba3f a975 d47e 41ad 903f
000003c0: 6b07 3b24 d978 b43f d368 f636 00ab 93bf
000003d0: f29b 66b3 07a4 c83f d333 02e2 cd45 c53f
000003e0: 6cd5 e8be 0dc0 c6bf aa2f d348 ed83 d93f
000003f0: b671 fd5a e193 b03f f581 ccd7 c357 cabf
00000400: bda8 8b74 5ff4 abbf 2af1 d312 9910 bc3f
00000410: 863c 9b69 3b90 c1bf 3dd1 8ff6 681a a63f
00000420: 11c3 b648 5942 a93f 0ab9 d6ee 1c16 c5bf
00000430: e5ec c926 9139 c13f e880 268e 57d4 b33f
00000440: 77ea 43f1 fde6 adbf 533b ed7f 1ba3 b0bf
00000450: 4fef 871f 7031 a0bf 25fc 52d8 a7a9 b5bf
00000460: 61d5 2f79 d4df b53f c275 e0eb 6771 b33f
00000470: 78af c78b 178a 9a3f 0263 9e7c d927 ab3f
00000480: c1fa 9731 c885 98bf 873d d79d fe77 83bf
00000490: 27c0 47a8 bb2f b0bf 27be 3461 5a82 b63f
000004a0: 54d4 866f 2ab3 bd3f b634 f104 5907 b2bf
000004b0: d042 c461 a172 c13f bf7c 196b c42b b6bf
000004c0: 51e3 3176 516c 89bf 7d6d dbce 9488 793f
000004d0: c345 6b22 85b0 a83f 631d a574 812d 98bf
000004e0: 8cba 8dc2 5d35 b0bf 89e8 5e47 85ba a7bf
000004f0: 0af9 1e4a 7ae0 b9bf 84a9 b5dd 67d1 b8bf
00000500: 736a 2262 a3ef b73f 0abc d93e 236c 96bf
00000510: f7d8 eebf 46f6 b43f 9514 4acd a452 aabf
00000520: 586a 4994 55be b6bf 11da 5bc8 2115 aabf
00000530: 200d e9ad 89fd babf 653c e539 4cfa a8bf
00000540: 96e4 3e07 9ba7 bb3f c474 e082 30f2 82bf
00000550: a6e5 7e80 5a76 c7bf 2d94 38a7 96a0 a83f
00000560: 368d a5a6 c4fd a2bf 59be 2258 38a0 383f
00000570: ce5b 9b09 e448 c33f 92c8 d60e 7634 c03f
00000580: 6fcb 95bc 7586 7e3f af22 a0db 3ae6 a43f
00000590: 47d7 343b 952d c23f 0bd8 51fb 591f 98bf
000005a0: bea2 1b69 3686 96bf ace7 4583 cb0e a13f
000005b0: e431 2773 3285 b6bf fec0 a3ff 5175 c43f
000005c0: 8e20 b1f6 f742 bd3f 8cfe c1b4 f437 98bf
000005d0: cf97 4155 5aa3 c1bf ebfc f3bc b924 bbbf
000005e0: 34ee 539e 6f0e c03f 1787 2a09 c228 b73f
000005f0: fc5d 799e 97c2 a2bf 158c 1008 1060 ac3f
00000600: 8c5b db85 5011 a2bf 6bcc dc98 c3c1 c4bf
00000610: 2e5d 8a45 7a59 d73f 8991 b8a3 8084 953f
00000620: d885 0dd6 fa2b ad3f 26c4 b1cb bf58 d33f
00000630: 13e6 bf96 0398 c73f bb53 29f3 efab 94bf
00000640: d6fd affe 36ae b0bf c8c4 61d5 0c3a 90bf
00000650: ca4e 3f4f 9bfd b33f 1012 ef91 2e4a bc3f
00000660: f30f a705 51c7 c2bf 116b 59ff 59e9 c6bf
00000670: 5577 dbfe 0368 713f eedc f32a 57a5 c23f
00000680: b60c 4326 ab95 a73f c7f2 8395 808c 973f
00000690: 8b81 5757 8575 97bf 81c2 d37c 8b93 ca3f
000006a0: 2840 4a7a f254 973f b36e 866f 48f0 b3bf
000006b0: f4ee d919 8356 d23f 0d7d f969 4c32 d63f
000006c0: 59a9 4ea0 0742 b73f 4d32 618a 6dd5 d43f
000006d0: c82c d533 9f33 b63f ec95 73c3 c427 c0bf
000006e0: 3c17 8b35 2ff5 823f 6616 ed8e 6544 c5bf
000006f0: d320 9271 4cb6 8d3f 2e9d a83d 6492 b03f
00000700: 0577 c6a2 d3d2 d1bf c140 f505 8008 a23f
00000710: 2728 a990 28fb c2bf 69ef 2bd4 7e91 bf3f
00000720: 376f 43bb 016e d0bf 3903 7f57 f8c1 a33f
00000730: eac6 75f9 1b86 c0bf 4734 c379 aad1 b83f
00000740: e301 e7d9 9a3d c6bf 7eaa a8aa 5f37 ca3f
00000750: 05c3 6d29 9c6e 89bf aa0a 4f0d e213 833f
00000760: ca27 3d95 bb70 af3f 6d13 d0a9 0106 b3bf
00000770: 82fb 09ab dae9 c13f 3741 98e3 4f89 c83f
00000780: 0846 4a6c 0456 bc3f dd58 230a 3ef0 a7bf
00000790: fa2b 75fb 3869 cfbf b65e 49d9 e16b ad3f
000007a0: 97b4 7415 0384 bebf 24b3 1282 6ddf abbf
000007b0: 7428 207a a1a1 823f 9758 5c98 8bae b43f
000007c0: 22bf 7d3b ba8e cabf 4cbe 55fa 3d21 c5bf
000007d0: e8fd 7fb6 6d0d d03f 4f4f 3576 4970 b5bf
000007e0: e982 34b8 e01d c3bf cf81 50ed f947 c2bf
000007f0: 1327 38ad fbdb a73f 133e fda0 f27b 99bf

b3 f8 [32, 1]
0.3318957583188983 0.4001787607888893 -0.31874835497556103 0.1157222329241857 -0.08001885483265515 0.015294458671509472 0.37020545014277645 0.17295430876470635
0.07123046409930682 -0.3864775258201099 0.07448799017401005 0.24505397784553906 0.3968040943117505 0.03580737394172503 0.3641867093203144 0.26432068701399375
0.07411214038008887 0.3766343768468397 0.6941129700874117 0.028681065207664308 -0.27659347993119177 0.0679185679416792 -0.04692262191897209 0.4243562046274456
0.20472951265628414 0.7362854578648934 0.2779921907459312 0.5187903073774696 0.25478827438817236 0.06170653266054201 0.28110998705758544 0.3585302700414821
00000000: 5a4a eab4 c73d d53f f317 8960 879c d93f
00000010: 7d86 1180 5f66 d4bf 4758 d4e5 f89f bd3f
00000020: f9d2 919c 1d7c b4bf c1e9 6e7e b352 8f3f
00000030: fb81 4a33 72b1 d73f aa60 ece5 5d23 c63f
00000040: 9b11 c9e1 283c b23f d953 823b 0cbc d8bf
00000050: 0dfd bd19 a511 b33f 5cf7 4cc2 ed5d cf3f
00000060: 3b39 ffff 3c65 d93f 9b19 1218 5855 a23f
00000070: 7cca 8ac5 d54e d73f 1f68 9850 a1ea d03f
00000080: 6246 2b63 03f9 b23f 29d1 c612 c71a d83f
00000090: cf27 4867 2c36 e63f 7850 53b4 915e 9d3f
000000a0: e0d7 a523 b5b3 d1bf 43c5 197c 1c63 b13f
000000b0: 2c4b 2bed 3d06 a8bf 28b1 2eed a628 db3f
000000c0: c43f b1a0 9334 ca3f 729a 4185 a68f e73f
000000d0: ce04 f3c1 9fca d13f 6a60 7521 ee99 e03f
000000e0: c3b1 797a 734e d03f cb02 74a7 ff97 af3f
000000f0: ab71 3fbe b4fd d13f d811 1df2 28f2 d63f
